…
                    "Epoch {:04d} | Time {:.3f} ({:.3f}) | NFE-F {:.1f} | NFE-B {:.1f} | "
                    "Train Loss {:.4f} | Test Loss {:.4f}".format(
                        itr // batches_per_epoch, batch_time_meter.val, batch_time_meter.avg, f_nfe_meter.avg,
                        b_nfe_meter.avg, train_loss, test_loss
                    )
                )

Namespace(adjoint=False, batch_size=128, debug=False, gpu=0, hyper_dim=8, hyper_hidden=8, lr=0.1, nepochs=160, network='odenet', save='./experiment1', tol=0.001)
Sequential(
  (0): ODEBlock(
    (odefunc): ODEfunc(
      (_hypernet): Sequential(
        (0): Linear(in_features=1, out_features=8, bias=True)
        (1): Tanh()
        (2): Linear(in_features=8, out_features=8, bias=True)
        (3): Tanh()
        (4): Linear(in_features=8, out_features=8, bias=True)
        (5): Tanh()
        (6): Linear(in_features=8, out_features=8, bias=True)
        (7): Tanh()
        (8): Linear(in_features=8, out_features=8, bias=True)
        (9): Tanh()
        (10): Linear(in_features=8, out_features=8, bias=True)
        (11): Tanh()
        (12): Linear(in_features=8, out_features=8, bias=True)
        (13): Tanh()
        (14): Linear(in_features=8, out_features=8, bias=True)
        (15): Tanh()
        (16): Linear(in_features=8, out_features=182, bias=True)
      )
    )
  )
  (1): Linear(in_features=13, out_features=1, bias=True)
)
Number of parameters: 2172
/home/tudockho/Documents/torchdiffeq/examples/odenet_boston.py
import os
import argparse
import logging
import time
import numpy as np
import torch
import torch.nn as nn
from torch.utils.data import DataLoader

from sklearn import datasets

parser = argparse.ArgumentParser()
parser.add_argument('--network', type=str,
                    choices=['resnet', 'odenet'], default='odenet')
…
                    "Epoch {:04d} | Time {:.3f} ({:.3f}) | NFE-F {:.1f} | NFE-B {:.1f} | "
                    "Train Loss {:.4f} | Test Loss {:.4f}".format(
                        itr // batches_per_epoch, batch_time_meter.val, batch_time_meter.avg, f_nfe_meter.avg,
                        b_nfe_meter.avg, train_loss, test_loss
                    )
                )

Namespace(adjoint=True, batch_size=128, debug=False, gpu=0, hyper_dim=64, hyper_hidden=8, lr=0.01, nepochs=160, save='./experiment1', tol=1e-06)
Sequential(
  (0): ODEBlock(
    (odefunc): ODEfunc(
      (_hypernet): Sequential(
        (0): Linear(in_features=1, out_features=64, bias=True)
        (1): Tanh()
        (2): Linear(in_features=64, out_features=64, bias=True)
        (3): Tanh()
        (4): Linear(in_features=64, out_features=64, bias=True)
        (5): Tanh()
        (6): Linear(in_features=64, out_features=64, bias=True)
        (7): Tanh()
        (8): Linear(in_features=64, out_features=64, bias=True)
        (9): Tanh()
        (10): Linear(in_features=64, out_features=64, bias=True)
        (11): Tanh()
        (12): Linear(in_features=64, out_features=64, bias=True)
        (13): Tanh()
        (14): Linear(in_features=64, out_features=64, bias=True)
        (15): Tanh()
        (16): Linear(in_features=64, out_features=182, bias=True)
      )
    )
  )
  (1): Tanh()
  (2): Linear(in_features=13, out_features=1, bias=True)
)
Number of parameters: 41092
Epoch 0000 | Time 0.207 (0.207) | NFE-F 44.0 | NFE-B 39.0 | Train Loss 477.7968 | Test Loss 172.4750
Epoch 0001 | Time 0.927 (0.222) | NFE-F 49.1 | NFE-B 42.5 | Train Loss 339.7423 | Test Loss 58.1468
/home/tudockho/Documents/torchdiffeq/examples/odenet_boston.py
import os
import argparse
import logging
import time
import numpy as np
…
                    "Epoch {:04d} | Time {:.3f} ({:.3f}) | NFE-F {:.1f} | NFE-B {:.1f} | "
                    "Train Loss {:.4f} | Test Loss {:.4f}".format(
                        itr // batches_per_epoch, batch_time_meter.val, batch_time_meter.avg, f_nfe_meter.avg,
                        b_nfe_meter.avg, train_loss, test_loss
                    )
                )

Namespace(adjoint=True, batch_size=128, debug=False, gpu=0, hyper_dim=256, hyper_hidden=3, lr=0.001, nepochs=160, save='./experiment1', tol=0.0001)
Sequential(
  (0): ODEBlock(
    (odefunc): ODEfunc(
      (_hypernet): Sequential(
        (0): Linear(in_features=1, out_features=256, bias=True)
        (1): Tanh()
        (2): Linear(in_features=256, out_features=256, bias=True)
        (3): Tanh()
        (4): Linear(in_features=256, out_features=256, bias=True)
        (5): Tanh()
        (6): Linear(in_features=256, out_features=182, bias=True)
      )
    )
  )
  (1): Tanh()
  (2): Linear(in_features=13, out_features=1, bias=True)
)
Number of parameters: 178884
Epoch 0000 | Time 0.296 (0.296) | NFE-F 38.0 | NFE-B 39.0 | Train Loss 706.6361 | Test Loss 259.9602
/home/tudockho/Documents/torchdiffeq/examples/odenet_boston.py
import os
import argparse
import logging
import time
import numpy as np
import torch
import torch.nn as nn
from torch.utils.data import DataLoader

from sklearn import datasets
…
